…
2025-05-24 03:36:04,794 [Thread-5 (process_request_thread)] DEBUG: Returning cached config
2025-05-24 03:36:04,794 [Thread-5 (process_request_thread)] DEBUG: Retrieved service: text-to-image
2025-05-24 03:36:04,795 [Thread-5 (process_request_thread)] INFO: Processing text-to-image, stream=False
2025-05-24 03:36:04,796 [Thread-5 (process_request_thread)] INFO: Non-streaming for: text-to-image
2025-05-24 03:36:34,551 [Thread-5 (process_request_thread)] ERROR: Failed to load model: Inferring the task automatically requires to check the hub with a model_id defined as a `str`. StableLmModel(
  (embed_tokens): Embedding(50281, 2560, padding_idx=50279)
  (layers): ModuleList(
    (0-31): 32 x StableLmDecoderLayer(
      (self_attn): StableLmSdpaAttention(
        (q_proj): Linear(in_features=2560, out_features=2560, bias=False)
        (k_proj): Linear(in_features=2560, out_features=2560, bias=False)
        (v_proj): Linear(in_features=2560, out_features=2560, bias=False)
        (o_proj): Linear(in_features=2560, out_features=2560, bias=False)
        (attention_dropout): Dropout(p=0.0, inplace=False)
        (rotary_emb): StableLmRotaryEmbedding()
      )
      (mlp): StableLmMLP(
        (gate_proj): Linear(in_features=2560, out_features=6912, bias=False)
        (up_proj): Linear(in_features=2560, out_features=6912, bias=False)
        (down_proj): Linear(in_features=6912, out_features=2560, bias=False)
        (act_fn): SiLU()
      )
      (input_layernorm): LayerNorm((2560,), eps=1e-05, elementwise_affine=True)
      (post_attention_layernorm): LayerNorm((2560,), eps=1e-05, elementwise_affine=True)
      (dropout): Dropout(p=0.0, inplace=False)
    )
  )
  (norm): LayerNorm((2560,), eps=1e-05, elementwise_affine=True)
  (rotary_emb): StableLmRotaryEmbedding()
) is not a valid model_id.
2025-05-24 03:36:34,579 [Thread-5 (process_request_thread)] ERROR: Server error: Inferring the task automatically requires to check the hub with a model_id defined as a `str`. StableLmModel(
  (embed_tokens): Embedding(50281, 2560, padding_idx=50279)
  (layers): ModuleList(
    (0-31): 32 x StableLmDecoderLayer(
      (self_attn): StableLmSdpaAttention(
        (q_proj): Linear(in_features=2560, out_features=2560, bias=False)
        (k_proj): Linear(in_features=2560, out_features=2560, bias=False)
        (v_proj): Linear(in_features=2560, out_features=2560, bias=False)
        (o_proj): Linear(in_features=2560, out_features=2560, bias=False)
        (attention_dropout): Dropout(p=0.0, inplace=False)
        (rotary_emb): StableLmRotaryEmbedding()
      )
      (mlp): StableLmMLP(
        (gate_proj): Linear(in_features=2560, out_features=6912, bias=False)
        (up_proj): Linear(in_features=2560, out_features=6912, bias=False)
        (down_proj): Linear(in_features=6912, out_features=2560, bias=False)
        (act_fn): SiLU()
      )
      (input_layernorm): LayerNorm((2560,), eps=1e-05, elementwise_affine=True)
      (post_attention_layernorm): LayerNorm((2560,), eps=1e-05, elementwise_affine=True)
      (dropout): Dropout(p=0.0, inplace=False)
    )
  )
  (norm): LayerNorm((2560,), eps=1e-05, elementwise_affine=True)
  (rotary_emb): StableLmRotaryEmbedding()
) is not a valid model_id.
2025-05-24 03:36:34,589 [Thread-5 (process_request_thread)] ERROR: Sent error: status=500, message=Server error: Inferring the task automatically requires to check the hub with a model_id defined as a `str`. StableLmModel(
  (embed_tokens): Embedding(50281, 2560, padding_idx=50279)
  (layers): ModuleList(
    (0-31): 32 x StableLmDecoderLayer(
      (self_attn): StableLmSdpaAttention(
        (q_proj): Linear(in_features=2560, out_features=2560, bias=False)
        (k_proj): Linear(in_features=2560, out_features=2560, bias=False)
        (v_proj): Linear(in_features=2560, out_features=2560, bias=False)
        (o_proj): Linear(in_features=2560, out_features=2560, bias=False)
        (attention_dropout): Dropout(p=0.0, inplace=False)
        (rotary_emb): StableLmRotaryEmbedding()
      )
      (mlp): StableLmMLP(
        (gate_proj): Linear(in_features=2560, out_features=6912, bias=False)
        (up_proj): Linear(in_features=2560, out_features=6912, bias=False)
        (down_proj): Linear(in_features=6912, out_features=2560, bias=False)
        (act_fn): SiLU()
      )
      (input_layernorm): LayerNorm((2560,), eps=1e-05, elementwise_affine=True)
      (post_attention_layernorm): LayerNorm((2560,), eps=1e-05, elementwise_affine=True)
      (dropout): Dropout(p=0.0, inplace=False)
    )
  )
  (norm): LayerNorm((2560,), eps=1e-05, elementwise_affine=True)
  (rotary_emb): StableLmRotaryEmbedding()
) is not a valid model_id.
2025-05-24 03:38:28,619 [MainThread] INFO: Shutting down server...
2025-05-24 03:39:06,457 [MainThread] DEBUG: Attempting to load config from: /mnt/h/AI/services/paia/ai/../config.json
2025-05-24 03:39:06,462 [MainThread] INFO: Loaded config: host=localhost, port=8000, ui_dir=ui, logging_level=DEBUG, logging_dir=.
…
2025-05-24 04:37:08,485 [Thread-3 (process_request_thread)] DEBUG: Returning cached config
2025-05-24 04:37:08,486 [Thread-3 (process_request_thread)] DEBUG: Retrieved service: text-to-image
2025-05-24 04:37:08,487 [Thread-3 (process_request_thread)] INFO: Processing text-to-image, stream=False
2025-05-24 04:37:08,488 [Thread-3 (process_request_thread)] INFO: Non-streaming for: text-to-image
2025-05-24 04:37:08,488 [Thread-3 (process_request_thread)] INFO: Loading model : UnfilteredAI/NSFW-3B
2025-05-24 04:37:44,898 [Thread-3 (process_request_thread)] INFO: TextToImageService initialized with StableLmModel(
  (embed_tokens): Embedding(50281, 2560, padding_idx=50279)
  (layers): ModuleList(
    (0-31): 32 x StableLmDecoderLayer(
      (self_attn): StableLmSdpaAttention(
        (q_proj): Linear(in_features=2560, out_features=2560, bias=False)
        (k_proj): Linear(in_features=2560, out_features=2560, bias=False)
        (v_proj): Linear(in_features=2560, out_features=2560, bias=False)
        (o_proj): Linear(in_features=2560, out_features=2560, bias=False)
        (attention_dropout): Dropout(p=0.0, inplace=False)
        (rotary_emb): StableLmRotaryEmbedding()
      )
      (mlp): StableLmMLP(
        (gate_proj): Linear(in_features=2560, out_features=6912, bias=False)
        (up_proj): Linear(in_features=2560, out_features=6912, bias=False)
        (down_proj): Linear(in_features=6912, out_features=2560, bias=False)
        (act_fn): SiLU()
      )
      (input_layernorm): LayerNorm((2560,), eps=1e-05, elementwise_affine=True)
      (post_attention_layernorm): LayerNorm((2560,), eps=1e-05, elementwise_affine=True)
      (dropout): Dropout(p=0.0, inplace=False)
    )
  )
  (norm): LayerNorm((2560,), eps=1e-05, elementwise_affine=True)
  (rotary_emb): StableLmRotaryEmbedding()
)
2025-05-24 04:37:44,901 [Thread-3 (process_request_thread)] DEBUG: Processing query: prompt='sdfsdfsdf', height=256, width=256, guidance_scale=8.0, num_inference_steps=20, negative_prompt=''
2025-05-24 04:37:44,907 [Thread-3 (process_request_thread)] ERROR: Error in image generation: TextGenerationPipeline.__call__() missing 1 required positional argument: 'text_inputs'
…
